…
        "print(model.summary())\n",
        "model.fit(X_train, y_train, validation_data=(X_test, y_test), epochs=epochs,verbose=1, batch_size=50)"
      ],
      "execution_count": 17,
      "outputs": [
        {
          "output_type": "stream",
          "text": [
            "Model: \"sequential_1\"\n",
            "_________________________________________________________________\n",
            "Layer (type)                 Output Shape              Param #   \n",
            "=================================================================\n",
            "conv2d_1 (Conv2D)            (None, 48, 48, 64)        640       \n",
            "_________________________________________________________________\n",
            "conv2d_2 (Conv2D)            (None, 48, 48, 64)        36928     \n",
            "_________________________________________________________________\n",
            "max_pooling2d_1 (MaxPooling2 (None, 24, 24, 64)        0         \n",
            "_________________________________________________________________\n",
            "batch_normalization_1 (Batch (None, 24, 24, 64)        256       \n",
            "_________________________________________________________________\n",
            "dropout_1 (Dropout)          (None, 24, 24, 64)        0         \n",
            "_________________________________________________________________\n",
            "conv2d_3 (Conv2D)            (None, 24, 24, 128)       73856     \n",
            "_________________________________________________________________\n",
            "conv2d_4 (Conv2D)            (None, 24, 24, 128)       147584    \n",
            "_________________________________________________________________\n",
            "max_pooling2d_2 (MaxPooling2 (None, 12, 12, 128)       0         \n",
            "_________________________________________________________________\n",
            "batch_normalization_2 (Batch (None, 12, 12, 128)       512       \n",
            "_________________________________________________________________\n",
            "dropout_2 (Dropout)          (None, 12, 12, 128)       0         \n",
            "_________________________________________________________________\n",
            "conv2d_5 (Conv2D)            (None, 12, 12, 256)       295168    \n",
            "_________________________________________________________________\n",
            "conv2d_6 (Conv2D)            (None, 12, 12, 256)       590080    \n",
            "_________________________________________________________________\n",
            "conv2d_7 (Conv2D)            (None, 12, 12, 256)       590080    \n",
            "_________________________________________________________________\n",
            "max_pooling2d_3 (MaxPooling2 (None, 6, 6, 256)         0         \n",
            "_________________________________________________________________\n",
            "batch_normalization_3 (Batch (None, 6, 6, 256)         1024      \n",
            "_________________________________________________________________\n",
            "dropout_3 (Dropout)          (None, 6, 6, 256)         0         \n",
            "_________________________________________________________________\n",
            "conv2d_8 (Conv2D)            (None, 6, 6, 512)         1180160   \n",
            "_________________________________________________________________\n",
            "conv2d_9 (Conv2D)            (None, 6, 6, 512)         2359808   \n",
            "_________________________________________________________________\n",
            "conv2d_10 (Conv2D)           (None, 6, 6, 512)         2359808   \n",
            "_________________________________________________________________\n",
            "max_pooling2d_4 (MaxPooling2 (None, 3, 3, 512)         0         \n",
            "_________________________________________________________________\n",
            "batch_normalization_4 (Batch (None, 3, 3, 512)         2048      \n",
            "_________________________________________________________________\n",
            "dropout_4 (Dropout)          (None, 3, 3, 512)         0         \n",
            "_________________________________________________________________\n",
            "flatten_1 (Flatten)          (None, 4608)              0         \n",
            "_________________________________________________________________\n",
            "dense_1 (Dense)              (None, 4096)              18878464  \n",
            "_________________________________________________________________\n",
            "dropout_5 (Dropout)          (None, 4096)              0         \n",
            "_________________________________________________________________\n",
            "dense_2 (Dense)              (None, 8)                 32776     \n",
            "=================================================================\n",
            "Total params: 26,549,192\n",
            "Trainable params: 26,547,272\n",
            "Non-trainable params: 1,920\n",
            "_________________________________________________________________\n",
            "None\n",
            "Train on 11047 samples, validate on 2762 samples\n",
            "Epoch 1/25\n",
…
